onnx-vs-onnx/resources/eegnet_lee2019.onnx (onnx, 15260 bytes, 4 tensors)

final_layer.conv_classifier.bias f4 [2]
-0.03764798 0.037647508
00000000: c534 1abd 4634 1a3d

view_1_bias f4 [8]
-0.025535243 0.017861169 -0.0005805157 -0.010372501 -0.003355782 -0.0489882 0.018639449 -0.031768158
00000000: 492f d1bc 9651 923c c02d 18ba 6cf1 29bc
00000010: aeec 5bbb daa7 48bd c2b1 983c 541f 02bd

getitem_bias f4 [16]
-0.43971166 -0.4503036 -0.034598976 -0.05582107 -0.15156053 -0.059904784 -0.49107927 -0.22048482
-0.12326775 -0.45139396 -0.18682505 0.026437206 -0.06807405 -0.112402864 -0.09558366 -0.10587244
00000000: e321 e1be 328e e6be a8b7 0dbd a2a4 64bd
00000010: af32 1bbe b85e 75bd be6e fbbe c6c6 61be
00000020: cd73 fcbd 1c1d e7be 114f 3fbe d792 d83c
00000030: 686a 8bbd 7933 e6bd 5ec1 c3bd a6d3 d8bd

conv2d_2_bias f4 [16]
-0.001190126 -0.29527575 -0.044903234 0.044848517 -0.062039442 -0.0066186357 -0.082199946 -0.14553086
-0.039294668 -0.08317612 -0.038401805 -0.0156181455 -0.06441514 -0.18029587 -0.12500066 0.0048841536
00000000: 00fe 9bba 622e 97be 74ec 37bd 14b3 373d
00000010: 121d 7ebd 24e1 d8bb 7258 a8bd 0b06 15be
00000020: 72f3 20bd 3e58 aabd 364b 1dbd 40e3 7fbc
00000030: 16ec 83bd 7b9f 38be 2c00 00be 400b a03b
